codemy/my_really_awesome_iris_model.pt (torch, 2943 bytes, 6 tensors)

fc1.weight f4 [8, 4]
00000000: 80f0 86be baf8 8bbe 18df 993e 3c60 a9be
00000010: c0ae 70be 8242 8b3e 1a5e bebe 6419 7b3e
00000020: edbd ba3e 2024 7cbe 9fbc 4c3f be24 743f
00000030: 35c9 433f 7235 e4bd 7cf3 433e d60a 893f
00000040: 08db 733f 30aa 313f 4bbe 72bf 3f69 83bf
00000050: 5409 e2be 7aa7 a93e 70b9 31bd 6661 b03e
00000060: 8592 483d 4509 73be 1fce e7be 7cfe 0e3e
00000070: 9842 a4be 4892 e3bd ec2f 983e de66 8bbe
-0.26355362 -0.273382 0.3005302 -0.33081234 -0.23504162 0.2719918 -0.3718117 0.24521405
0.36473027 -0.24623156 0.7997531 0.95368564 0.7647889 -0.111430064 0.1913585 1.0706432
0.9525609 0.6940031 -0.94821614 -1.0266494 -0.44147742 0.33135587 -0.043389738 0.3444931
0.048967857 -0.23734005 -0.45274445 0.13964266 -0.32082057 -0.11111885 0.2972406 -0.2722692

fc1.bias f4 [8]
00000000: 6061 c8bc 30fc 8abd 784f 26bf 536f 7c3e
00000010: 01f0 8b3f 2c3b 40be 4c93 9b3e cc85 26be
-0.024460495 -0.06786382 -0.6496501 0.24651842 1.0932618 -0.18772572 0.30385816 -0.16261977

fc2.weight f4 [9, 8]
00000000: 3224 153e fecf 153e f66e 9cbd e014 cabe
00000010: f98c 883e a440 a7bd 028d 763e 7b24 59be
00000020: b0c5 13bd 2730 9b3e 1e13 9dbe e08e 5f3c
00000030: 8023 97bb cab6 9abe 7042 8cbd 4aed a5be
00000040: f871 9c3d 90e2 733d 3d6c 383f 3a17 303d
00000050: 764f 58bf f287 02be 6312 81be fbd2 8c3e
00000060: 280a e83d 9d3b b4be 536c fd3d 1953 e83e
00000070: 22bc 713f d8ca d3bd 1bff c53e a8be df3d
00000080: 3f18 a3be ac4c 983d 7f20 aa3e 3a90 c93e
00000090: 6554 99bf d0e1 d3bc 4645 6f3e ea4d 003e
000000a0: 7e59 2a3e ab43 993e 66f2 573f 7ca4 0a3f
000000b0: 5632 08bf 70a0 be3c 774a 423e 0cfc a6bd
000000c0: d094 3e3d 80ff a03b 3473 de3e 9763 103f
000000d0: a699 ebbe c7f6 99be 2066 ea3d 9aa1 efbd
000000e0: 0888 0d3d bd24 a4be 1ea6 0f3e b545 78be
000000f0: a837 24bd 6565 9b3e 9441 ad3d f5ee 963e
00000100: c23d 44be 2f66 a8be f7ec 90be 7c01 f8bd
00000110: c87a e1bd 908c c4bc 1e06 4f3e 6fde 9d3e
0.14564589 0.14630124 -0.076383516 -0.3946905 0.26670054 -0.08166626 0.24077228 -0.21205322
-0.0360772 0.30310175 -0.30678648 0.013644904 -0.004612386 -0.30217582 -0.068486094 -0.324076
0.07638925 0.05954224 0.7204016 0.0429909 -0.8449625 -0.12747172 -0.2520934 0.27504715
0.11330062 -0.3520173 0.12374177 0.45375898 0.9442769 -0.10341424 0.38671193 0.10925037
-0.31854436 0.07436499 0.33227918 0.3936785 -1.197888 -0.025864512 0.2336627 0.12529722
0.16635701 0.2993444 0.84354246 0.54157233 -0.53201807 0.023269862 0.18973719 -0.08153543
0.046528637 0.0049132705 0.43447268 0.5640196 -0.46015662 -0.3007109 0.1144526 -0.11700745
0.034553558 -0.3205928 0.14028212 -0.24245341 -0.04009214 0.30350795 0.08459774 0.29479185
-0.19164184 -0.3289046 -0.2830579 -0.12109658 -0.11009747 -0.023992807 0.20217177 0.30833766

fc2.bias f4 [9]
00000000: 5235 d3be 3c08 52be 6f35 8fbe 5529 db3e
00000010: b5b7 f5be 865a 16bf e67f 7dbe afde a0be
00000020: 555a 993e
-0.41251618 -0.20510954 -0.27970454 0.4280497 -0.4799172 -0.5873188 -0.2475582 -0.31419894
0.2995173

out.weight f4 [3, 9]
00000000: 2b8f b3bd 2cb0 d2bd 2165 a7be 806c 6c3f
00000010: a5dd 063e c856 19bf e8fd 21bf 011c 953e
00000020: 94b8 90bd ff02 693d 3a1e 81be d0c9 f03d
00000030: 0f78 953e 390c 8fbf 9a89 fa3e 340e 033f
00000040: f8ea 053d 13f1 13be 8016 00bc 63e5 833e
00000050: 770e 7e3f fb65 28bf 5ab4 933f cf78 403f
00000060: 072a 393f a29e 9ebe 578b 95be
-0.087675415 -0.10287508 -0.32694343 0.9235306 0.13170488 -0.5989804 -0.63278055 0.29122928
-0.070664555 0.056887623 -0.25218374 0.11757243 0.2919316 -1.1175605 0.48933107 0.5119355
0.032694787 -0.14447431 -0.007817864 0.25760946 0.9924082 -0.6578061 1.1539414 0.7518434
0.72329754 -0.30980402 -0.2920787

out.bias f4 [3]
00000000: e6dd 413f 43fb 5d3f 8a44 63bf
0.75729215 0.8671152 -0.8877646
